…
[aispeech] 2023-12-25 09:05:06,881 (initialize:88) INFO: Initialize decoder.decoders.1.norm1.bias to zeros
[aispeech] 2023-12-25 09:05:06,881 (initialize:88) INFO: Initialize decoder.decoders.1.norm2.bias to zeros
[aispeech] 2023-12-25 09:05:06,881 (initialize:88) INFO: Initialize decoder.decoders.1.norm3.bias to zeros
[aispeech] 2023-12-25 09:05:06,881 (initialize:88) INFO: Initialize ctc.ctc_lo.bias to zeros
[aispeech] 2023-12-25 09:05:08,113 (abs_task:1268) INFO: pytorch.version=1.12.1, cuda.available=True, cudnn.version=8302, cudnn.benchmark=False, cudnn.deterministic=True
[aispeech] 2023-12-25 09:05:08,115 (abs_task:1269) INFO: Model structure:
ESPnetDiscreteASRModel(
  (frontend): Embedding(
    (embed): Sequential(
      (0): Embedding(13, 16)
      (1): PositionalEncoding(
        (dropout): Dropout(p=0.1, inplace=False)
      )
    )
  )
  (encoder): TransformerEncoder(
    (embed): Conv1dSubsampling2(
      (conv): Sequential(
        (0): Conv1d(16, 2, kernel_size=(3,), stride=(1,))
        (1): ReLU()
        (2): Conv1d(2, 2, kernel_size=(3,), stride=(2,))
        (3): ReLU()
      )
      (out): Sequential(
        (0): Linear(in_features=2, out_features=2, bias=True)
        (1): PositionalEncoding(
          (dropout): Dropout(p=0.1, inplace=False)
        )
      )
    )
    (encoders): MultiSequential(
      (0): EncoderLayer(
        (self_attn): MultiHeadedAttention(
          (linear_q): Linear(in_features=2, out_features=2, bias=True)
          (linear_k): Linear(in_features=2, out_features=2, bias=True)
          (linear_v): Linear(in_features=2, out_features=2, bias=True)
          (linear_out): Linear(in_features=2, out_features=2, bias=True)
          (dropout): Dropout(p=0.0, inplace=False)
        )
        (feed_forward): PositionwiseFeedForward(
          (w_1): Linear(in_features=2, out_features=2, bias=True)
          (w_2): Linear(in_features=2, out_features=2, bias=True)
          (dropout): Dropout(p=0.1, inplace=False)
          (activation): ReLU()
        )
        (norm1): LayerNorm((2,), eps=1e-12, elementwise_affine=True)
        (norm2): LayerNorm((2,), eps=1e-12, elementwise_affine=True)
        (dropout): Dropout(p=0.1, inplace=False)
      )
      (1): EncoderLayer(
        (self_attn): MultiHeadedAttention(
          (linear_q): Linear(in_features=2, out_features=2, bias=True)
          (linear_k): Linear(in_features=2, out_features=2, bias=True)
          (linear_v): Linear(in_features=2, out_features=2, bias=True)
          (linear_out): Linear(in_features=2, out_features=2, bias=True)
          (dropout): Dropout(p=0.0, inplace=False)
        )
        (feed_forward): PositionwiseFeedForward(
          (w_1): Linear(in_features=2, out_features=2, bias=True)
          (w_2): Linear(in_features=2, out_features=2, bias=True)
          (dropout): Dropout(p=0.1, inplace=False)
          (activation): ReLU()
        )
        (norm1): LayerNorm((2,), eps=1e-12, elementwise_affine=True)
        (norm2): LayerNorm((2,), eps=1e-12, elementwise_affine=True)
        (dropout): Dropout(p=0.1, inplace=False)
      )
    )
    (after_norm): LayerNorm((2,), eps=1e-12, elementwise_affine=True)
  )
  (decoder): TransformerDecoder(
    (embed): Sequential(
      (0): Embedding(22, 2)
      (1): PositionalEncoding(
        (dropout): Dropout(p=0.1, inplace=False)
      )
    )
    (after_norm): LayerNorm((2,), eps=1e-12, elementwise_affine=True)
    (output_layer): Linear(in_features=2, out_features=22, bias=True)
    (decoders): MultiSequential(
      (0): DecoderLayer(
        (self_attn): MultiHeadedAttention(
          (linear_q): Linear(in_features=2, out_features=2, bias=True)
          (linear_k): Linear(in_features=2, out_features=2, bias=True)
          (linear_v): Linear(in_features=2, out_features=2, bias=True)
          (linear_out): Linear(in_features=2, out_features=2, bias=True)
          (dropout): Dropout(p=0.0, inplace=False)
        )
        (src_attn): MultiHeadedAttention(
          (linear_q): Linear(in_features=2, out_features=2, bias=True)
          (linear_k): Linear(in_features=2, out_features=2, bias=True)
          (linear_v): Linear(in_features=2, out_features=2, bias=True)
          (linear_out): Linear(in_features=2, out_features=2, bias=True)
          (dropout): Dropout(p=0.0, inplace=False)
        )
        (feed_forward): PositionwiseFeedForward(
          (w_1): Linear(in_features=2, out_features=2, bias=True)
          (w_2): Linear(in_features=2, out_features=2, bias=True)
          (dropout): Dropout(p=0.1, inplace=False)
          (activation): ReLU()
        )
        (norm1): LayerNorm((2,), eps=1e-12, elementwise_affine=True)
        (norm2): LayerNorm((2,), eps=1e-12, elementwise_affine=True)
        (norm3): LayerNorm((2,), eps=1e-12, elementwise_affine=True)
        (dropout): Dropout(p=0.1, inplace=False)
      )
      (1): DecoderLayer(
        (self_attn): MultiHeadedAttention(
          (linear_q): Linear(in_features=2, out_features=2, bias=True)
          (linear_k): Linear(in_features=2, out_features=2, bias=True)
          (linear_v): Linear(in_features=2, out_features=2, bias=True)
          (linear_out): Linear(in_features=2, out_features=2, bias=True)
          (dropout): Dropout(p=0.0, inplace=False)
        )
        (src_attn): MultiHeadedAttention(
          (linear_q): Linear(in_features=2, out_features=2, bias=True)
          (linear_k): Linear(in_features=2, out_features=2, bias=True)
          (linear_v): Linear(in_features=2, out_features=2, bias=True)
          (linear_out): Linear(in_features=2, out_features=2, bias=True)
          (dropout): Dropout(p=0.0, inplace=False)
        )
        (feed_forward): PositionwiseFeedForward(
          (w_1): Linear(in_features=2, out_features=2, bias=True)
          (w_2): Linear(in_features=2, out_features=2, bias=True)
          (dropout): Dropout(p=0.1, inplace=False)
          (activation): ReLU()
        )
        (norm1): LayerNorm((2,), eps=1e-12, elementwise_affine=True)
        (norm2): LayerNorm((2,), eps=1e-12, elementwise_affine=True)
        (norm3): LayerNorm((2,), eps=1e-12, elementwise_affine=True)
        (dropout): Dropout(p=0.1, inplace=False)
      )
    )
  )
  (criterion_mt): LabelSmoothingLoss(
    (criterion): KLDivLoss()
  )
  (ctc): CTC(
    (ctc_lo): Linear(in_features=2, out_features=22, bias=True)
    (ctc_loss): CTCLoss()
  )
)

Model summary:
    Class Name: ESPnetDiscreteASRModel
    Total Number of model parameters: 742.00  
    Number of trainable parameters: 742.00   (100.0%)
    Size: 2.97 KB
    Type: torch.float32
[aispeech] 2023-12-25 09:05:08,115 (abs_task:1272) INFO: Optimizer:
Adam (
Parameter Group 0
    amsgrad: False
    betas: (0.9, 0.999)
…
